…
2025-04-25 15:01:12,046 - INFO - Calling define_CGNet with architecture arguments: {'img_channel': 3, 'out_channels': 3, 'width': 16, 'middle_blk_num': 8, 'enc_blk_nums': [2, 2, 3, 4], 'dec_blk_nums': [2, 2, 2, 2], 'GCE_CONVS_nums': [3, 3, 2, 2]}
2025-04-25 15:01:12,046 - INFO - Instantiating CGNet with img_channel=3, out_channels=3, width=16, middle_blk_num=8, enc_blk_nums=[2, 2, 3, 4], dec_blk_nums=[2, 2, 2, 2], GCE_CONVS_nums=[3, 3, 2, 2]
2025-04-25 15:01:12,302 - train_logger - INFO - Successfully defined CGNet model.
2025-04-25 15:01:12,304 - train_logger - INFO - CGNet Model:
CGNet(
  (intro): Conv2d(3, 16, kernel_size=(3, 3), stride=(1, 1), padding=(1, 1))
  (encoders): ModuleList(
    (0): Sequential(
      (0): CascadedGazeBlock(
        (conv1): Conv2d(16, 32, kernel_size=(1, 1), stride=(1, 1))
        (conv2): Conv2d(32, 32, kernel_size=(3, 3), stride=(1, 1), padding=(1, 1), groups=32)
        (GCE): GlobalContextExtractor(
          (depthwise_separable_convs): ModuleList(
            (0): depthwise_separable_conv(
              (depthwise): Conv2d(16, 16, kernel_size=(3, 3), stride=(2, 2), groups=16, bias=False)
              (pointwise): Conv2d(16, 16, kernel_size=(1, 1), stride=(1, 1), bias=False)
            )
            (1): depthwise_separable_conv(
              (depthwise): Conv2d(16, 16, kernel_size=(3, 3), stride=(3, 3), groups=16, bias=False)
              (pointwise): Conv2d(16, 16, kernel_size=(1, 1), stride=(1, 1), bias=False)
            )
            (2): depthwise_separable_conv(
              (depthwise): Conv2d(16, 16, kernel_size=(5, 5), stride=(4, 4), groups=16, bias=False)
              (pointwise): Conv2d(16, 16, kernel_size=(1, 1), stride=(1, 1), bias=False)
            )
          )
        )
        (project_out): Conv2d(80, 16, kernel_size=(1, 1), stride=(1, 1))
        (sca): Sequential(
          (0): AdaptiveAvgPool2d(output_size=1)
          (1): Conv2d(80, 80, kernel_size=(1, 1), stride=(1, 1))
        )
        (gce_input_proj): Conv2d(16, 16, kernel_size=(1, 1), stride=(1, 1))
        (sg): SimpleGate()
        (conv4): Conv2d(16, 32, kernel_size=(1, 1), stride=(1, 1))
        (conv5): Conv2d(16, 16, kernel_size=(1, 1), stride=(1, 1))
        (norm1): LayerNorm2d()
        (norm2): LayerNorm2d()
        (dropout1): Identity()
        (dropout2): Identity()
      )
      (1): CascadedGazeBlock(
        (conv1): Conv2d(16, 32, kernel_size=(1, 1), stride=(1, 1))
        (conv2): Conv2d(32, 32, kernel_size=(3, 3), stride=(1, 1), padding=(1, 1), groups=32)
        (GCE): GlobalContextExtractor(
          (depthwise_separable_convs): ModuleList(
            (0): depthwise_separable_conv(
              (depthwise): Conv2d(16, 16, kernel_size=(3, 3), stride=(2, 2), groups=16, bias=False)
              (pointwise): Conv2d(16, 16, kernel_size=(1, 1), stride=(1, 1), bias=False)
            )
            (1): depthwise_separable_conv(
              (depthwise): Conv2d(16, 16, kernel_size=(3, 3), stride=(3, 3), groups=16, bias=False)
              (pointwise): Conv2d(16, 16, kernel_size=(1, 1), stride=(1, 1), bias=False)
            )
            (2): depthwise_separable_conv(
              (depthwise): Conv2d(16, 16, kernel_size=(5, 5), stride=(4, 4), groups=16, bias=False)
              (pointwise): Conv2d(16, 16, kernel_size=(1, 1), stride=(1, 1), bias=False)
            )
          )
        )
        (project_out): Conv2d(80, 16, kernel_size=(1, 1), stride=(1, 1))
        (sca): Sequential(
          (0): AdaptiveAvgPool2d(output_size=1)
          (1): Conv2d(80, 80, kernel_size=(1, 1), stride=(1, 1))
        )
        (gce_input_proj): Conv2d(16, 16, kernel_size=(1, 1), stride=(1, 1))
        (sg): SimpleGate()
        (conv4): Conv2d(16, 32, kernel_size=(1, 1), stride=(1, 1))
        (conv5): Conv2d(16, 16, kernel_size=(1, 1), stride=(1, 1))
        (norm1): LayerNorm2d()
        (norm2): LayerNorm2d()
        (dropout1): Identity()
        (dropout2): Identity()
      )
    )
    (1): Sequential(
      (0): CascadedGazeBlock(
        (conv1): Conv2d(32, 64, kernel_size=(1, 1), stride=(1, 1))
        (conv2): Conv2d(64, 64, kernel_size=(3, 3), stride=(1, 1), padding=(1, 1), groups=64)
        (GCE): GlobalContextExtractor(
          (depthwise_separable_convs): ModuleList(
            (0): depthwise_separable_conv(
              (depthwise): Conv2d(32, 32, kernel_size=(3, 3), stride=(2, 2), groups=32, bias=False)
              (pointwise): Conv2d(32, 32, kernel_size=(1, 1), stride=(1, 1), bias=False)
            )
            (1): depthwise_separable_conv(
              (depthwise): Conv2d(32, 32, kernel_size=(3, 3), stride=(3, 3), groups=32, bias=False)
              (pointwise): Conv2d(32, 32, kernel_size=(1, 1), stride=(1, 1), bias=False)
            )
            (2): depthwise_separable_conv(
              (depthwise): Conv2d(32, 32, kernel_size=(5, 5), stride=(4, 4), groups=32, bias=False)
              (pointwise): Conv2d(32, 32, kernel_size=(1, 1), stride=(1, 1), bias=False)
            )
          )
        )
        (project_out): Conv2d(160, 32, kernel_size=(1, 1), stride=(1, 1))
        (sca): Sequential(
          (0): AdaptiveAvgPool2d(output_size=1)
          (1): Conv2d(160, 160, kernel_size=(1, 1), stride=(1, 1))
        )
        (gce_input_proj): Conv2d(32, 32, kernel_size=(1, 1), stride=(1, 1))
        (sg): SimpleGate()
        (conv4): Conv2d(32, 64, kernel_size=(1, 1), stride=(1, 1))
        (conv5): Conv2d(32, 32, kernel_size=(1, 1), stride=(1, 1))
        (norm1): LayerNorm2d()
        (norm2): LayerNorm2d()
        (dropout1): Identity()
        (dropout2): Identity()
      )
      (1): CascadedGazeBlock(
        (conv1): Conv2d(32, 64, kernel_size=(1, 1), stride=(1, 1))
        (conv2): Conv2d(64, 64, kernel_size=(3, 3), stride=(1, 1), padding=(1, 1), groups=64)
        (GCE): GlobalContextExtractor(
          (depthwise_separable_convs): ModuleList(
            (0): depthwise_separable_conv(
              (depthwise): Conv2d(32, 32, kernel_size=(3, 3), stride=(2, 2), groups=32, bias=False)
              (pointwise): Conv2d(32, 32, kernel_size=(1, 1), stride=(1, 1), bias=False)
            )
            (1): depthwise_separable_conv(
              (depthwise): Conv2d(32, 32, kernel_size=(3, 3), stride=(3, 3), groups=32, bias=False)
              (pointwise): Conv2d(32, 32, kernel_size=(1, 1), stride=(1, 1), bias=False)
            )
            (2): depthwise_separable_conv(
              (depthwise): Conv2d(32, 32, kernel_size=(5, 5), stride=(4, 4), groups=32, bias=False)
              (pointwise): Conv2d(32, 32, kernel_size=(1, 1), stride=(1, 1), bias=False)
            )
          )
        )
        (project_out): Conv2d(160, 32, kernel_size=(1, 1), stride=(1, 1))
        (sca): Sequential(
          (0): AdaptiveAvgPool2d(output_size=1)
          (1): Conv2d(160, 160, kernel_size=(1, 1), stride=(1, 1))
        )
        (gce_input_proj): Conv2d(32, 32, kernel_size=(1, 1), stride=(1, 1))
        (sg): SimpleGate()
        (conv4): Conv2d(32, 64, kernel_size=(1, 1), stride=(1, 1))
        (conv5): Conv2d(32, 32, kernel_size=(1, 1), stride=(1, 1))
        (norm1): LayerNorm2d()
        (norm2): LayerNorm2d()
        (dropout1): Identity()
        (dropout2): Identity()
      )
    )
    (2): Sequential(
      (0): CascadedGazeBlock(
        (conv1): Conv2d(64, 128, kernel_size=(1, 1), stride=(1, 1))
        (conv2): Conv2d(128, 128, kernel_size=(3, 3), stride=(1, 1), padding=(1, 1), groups=128)
        (GCE): GlobalContextExtractor(
          (depthwise_separable_convs): ModuleList(
            (0): depthwise_separable_conv(
              (depthwise): Conv2d(64, 64, kernel_size=(3, 3), stride=(2, 2), groups=64, bias=False)
              (pointwise): Conv2d(64, 64, kernel_size=(1, 1), stride=(1, 1), bias=False)
            )
            (1): depthwise_separable_conv(
              (depthwise): Conv2d(64, 64, kernel_size=(3, 3), stride=(3, 3), groups=64, bias=False)
              (pointwise): Conv2d(64, 64, kernel_size=(1, 1), stride=(1, 1), bias=False)
            )
          )
        )
        (project_out): Conv2d(256, 64, kernel_size=(1, 1), stride=(1, 1))
        (sca): Sequential(
          (0): AdaptiveAvgPool2d(output_size=1)
          (1): Conv2d(256, 256, kernel_size=(1, 1), stride=(1, 1))
        )
        (gce_input_proj): Conv2d(64, 64, kernel_size=(1, 1), stride=(1, 1))
        (sg): SimpleGate()
        (conv4): Conv2d(64, 128, kernel_size=(1, 1), stride=(1, 1))
        (conv5): Conv2d(64, 64, kernel_size=(1, 1), stride=(1, 1))
        (norm1): LayerNorm2d()
        (norm2): LayerNorm2d()
        (dropout1): Identity()
        (dropout2): Identity()
      )
      (1): CascadedGazeBlock(
        (conv1): Conv2d(64, 128, kernel_size=(1, 1), stride=(1, 1))
        (conv2): Conv2d(128, 128, kernel_size=(3, 3), stride=(1, 1), padding=(1, 1), groups=128)
        (GCE): GlobalContextExtractor(
          (depthwise_separable_convs): ModuleList(
            (0): depthwise_separable_conv(
              (depthwise): Conv2d(64, 64, kernel_size=(3, 3), stride=(2, 2), groups=64, bias=False)
              (pointwise): Conv2d(64, 64, kernel_size=(1, 1), stride=(1, 1), bias=False)
            )
            (1): depthwise_separable_conv(
              (depthwise): Conv2d(64, 64, kernel_size=(3, 3), stride=(3, 3), groups=64, bias=False)
              (pointwise): Conv2d(64, 64, kernel_size=(1, 1), stride=(1, 1), bias=False)
            )
          )
        )
        (project_out): Conv2d(256, 64, kernel_size=(1, 1), stride=(1, 1))
        (sca): Sequential(
          (0): AdaptiveAvgPool2d(output_size=1)
          (1): Conv2d(256, 256, kernel_size=(1, 1), stride=(1, 1))
        )
        (gce_input_proj): Conv2d(64, 64, kernel_size=(1, 1), stride=(1, 1))
        (sg): SimpleGate()
        (conv4): Conv2d(64, 128, kernel_size=(1, 1), stride=(1, 1))
        (conv5): Conv2d(64, 64, kernel_size=(1, 1), stride=(1, 1))
        (norm1): LayerNorm2d()
        (norm2): LayerNorm2d()
        (dropout1): Identity()
        (dropout2): Identity()
      )
      (2): CascadedGazeBlock(
        (conv1): Conv2d(64, 128, kernel_size=(1, 1), stride=(1, 1))
        (conv2): Conv2d(128, 128, kernel_size=(3, 3), stride=(1, 1), padding=(1, 1), groups=128)
        (GCE): GlobalContextExtractor(
          (depthwise_separable_convs): ModuleList(
            (0): depthwise_separable_conv(
              (depthwise): Conv2d(64, 64, kernel_size=(3, 3), stride=(2, 2), groups=64, bias=False)
              (pointwise): Conv2d(64, 64, kernel_size=(1, 1), stride=(1, 1), bias=False)
            )
            (1): depthwise_separable_conv(
              (depthwise): Conv2d(64, 64, kernel_size=(3, 3), stride=(3, 3), groups=64, bias=False)
              (pointwise): Conv2d(64, 64, kernel_size=(1, 1), stride=(1, 1), bias=False)
            )
          )
        )
        (project_out): Conv2d(256, 64, kernel_size=(1, 1), stride=(1, 1))
        (sca): Sequential(
          (0): AdaptiveAvgPool2d(output_size=1)
          (1): Conv2d(256, 256, kernel_size=(1, 1), stride=(1, 1))
        )
        (gce_input_proj): Conv2d(64, 64, kernel_size=(1, 1), stride=(1, 1))
        (sg): SimpleGate()
        (conv4): Conv2d(64, 128, kernel_size=(1, 1), stride=(1, 1))
        (conv5): Conv2d(64, 64, kernel_size=(1, 1), stride=(1, 1))
        (norm1): LayerNorm2d()
        (norm2): LayerNorm2d()
        (dropout1): Identity()
        (dropout2): Identity()
      )
    )
    (3): Sequential(
      (0): CascadedGazeBlock(
        (conv1): Conv2d(128, 256, kernel_size=(1, 1), stride=(1, 1))
        (conv2): Conv2d(256, 256, kernel_size=(3, 3), stride=(1, 1), padding=(1, 1), groups=256)
        (GCE): GlobalContextExtractor(
          (depthwise_separable_convs): ModuleList(
            (0): depthwise_separable_conv(
              (depthwise): Conv2d(128, 128, kernel_size=(3, 3), stride=(2, 2), groups=128, bias=False)
              (pointwise): Conv2d(128, 128, kernel_size=(1, 1), stride=(1, 1), bias=False)
            )
            (1): depthwise_separable_conv(
              (depthwise): Conv2d(128, 128, kernel_size=(3, 3), stride=(3, 3), groups=128, bias=False)
              (pointwise): Conv2d(128, 128, kernel_size=(1, 1), stride=(1, 1), bias=False)
            )
          )
        )
        (project_out): Conv2d(512, 128, kernel_size=(1, 1), stride=(1, 1))
        (sca): Sequential(
          (0): AdaptiveAvgPool2d(output_size=1)
          (1): Conv2d(512, 512, kernel_size=(1, 1), stride=(1, 1))
        )
        (gce_input_proj): Conv2d(128, 128, kernel_size=(1, 1), stride=(1, 1))
        (sg): SimpleGate()
        (conv4): Conv2d(128, 256, kernel_size=(1, 1), stride=(1, 1))
        (conv5): Conv2d(128, 128, kernel_size=(1, 1), stride=(1, 1))
        (norm1): LayerNorm2d()
        (norm2): LayerNorm2d()
        (dropout1): Identity()
        (dropout2): Identity()
      )
      (1): CascadedGazeBlock(
        (conv1): Conv2d(128, 256, kernel_size=(1, 1), stride=(1, 1))
        (conv2): Conv2d(256, 256, kernel_size=(3, 3), stride=(1, 1), padding=(1, 1), groups=256)
        (GCE): GlobalContextExtractor(
          (depthwise_separable_convs): ModuleList(
            (0): depthwise_separable_conv(
              (depthwise): Conv2d(128, 128, kernel_size=(3, 3), stride=(2, 2), groups=128, bias=False)
              (pointwise): Conv2d(128, 128, kernel_size=(1, 1), stride=(1, 1), bias=False)
            )
            (1): depthwise_separable_conv(
              (depthwise): Conv2d(128, 128, kernel_size=(3, 3), stride=(3, 3), groups=128, bias=False)
              (pointwise): Conv2d(128, 128, kernel_size=(1, 1), stride=(1, 1), bias=False)
            )
          )
        )
        (project_out): Conv2d(512, 128, kernel_size=(1, 1), stride=(1, 1))
        (sca): Sequential(
          (0): AdaptiveAvgPool2d(output_size=1)
          (1): Conv2d(512, 512, kernel_size=(1, 1), stride=(1, 1))
        )
        (gce_input_proj): Conv2d(128, 128, kernel_size=(1, 1), stride=(1, 1))
        (sg): SimpleGate()
        (conv4): Conv2d(128, 256, kernel_size=(1, 1), stride=(1, 1))
        (conv5): Conv2d(128, 128, kernel_size=(1, 1), stride=(1, 1))
        (norm1): LayerNorm2d()
        (norm2): LayerNorm2d()
        (dropout1): Identity()
        (dropout2): Identity()
      )
      (2): CascadedGazeBlock(
        (conv1): Conv2d(128, 256, kernel_size=(1, 1), stride=(1, 1))
        (conv2): Conv2d(256, 256, kernel_size=(3, 3), stride=(1, 1), padding=(1, 1), groups=256)
        (GCE): GlobalContextExtractor(
          (depthwise_separable_convs): ModuleList(
            (0): depthwise_separable_conv(
              (depthwise): Conv2d(128, 128, kernel_size=(3, 3), stride=(2, 2), groups=128, bias=False)
              (pointwise): Conv2d(128, 128, kernel_size=(1, 1), stride=(1, 1), bias=False)
            )
            (1): depthwise_separable_conv(
              (depthwise): Conv2d(128, 128, kernel_size=(3, 3), stride=(3, 3), groups=128, bias=False)
              (pointwise): Conv2d(128, 128, kernel_size=(1, 1), stride=(1, 1), bias=False)
            )
          )
        )
        (project_out): Conv2d(512, 128, kernel_size=(1, 1), stride=(1, 1))
        (sca): Sequential(
          (0): AdaptiveAvgPool2d(output_size=1)
          (1): Conv2d(512, 512, kernel_size=(1, 1), stride=(1, 1))
        )
        (gce_input_proj): Conv2d(128, 128, kernel_size=(1, 1), stride=(1, 1))
        (sg): SimpleGate()
        (conv4): Conv2d(128, 256, kernel_size=(1, 1), stride=(1, 1))
        (conv5): Conv2d(128, 128, kernel_size=(1, 1), stride=(1, 1))
        (norm1): LayerNorm2d()
        (norm2): LayerNorm2d()
        (dropout1): Identity()
        (dropout2): Identity()
      )
      (3): CascadedGazeBlock(
        (conv1): Conv2d(128, 256, kernel_size=(1, 1), stride=(1, 1))
        (conv2): Conv2d(256, 256, kernel_size=(3, 3), stride=(1, 1), padding=(1, 1), groups=256)
        (GCE): GlobalContextExtractor(
          (depthwise_separable_convs): ModuleList(
            (0): depthwise_separable_conv(
              (depthwise): Conv2d(128, 128, kernel_size=(3, 3), stride=(2, 2), groups=128, bias=False)
              (pointwise): Conv2d(128, 128, kernel_size=(1, 1), stride=(1, 1), bias=False)
            )
            (1): depthwise_separable_conv(
              (depthwise): Conv2d(128, 128, kernel_size=(3, 3), stride=(3, 3), groups=128, bias=False)
              (pointwise): Conv2d(128, 128, kernel_size=(1, 1), stride=(1, 1), bias=False)
            )
          )
        )
        (project_out): Conv2d(512, 128, kernel_size=(1, 1), stride=(1, 1))
        (sca): Sequential(
          (0): AdaptiveAvgPool2d(output_size=1)
          (1): Conv2d(512, 512, kernel_size=(1, 1), stride=(1, 1))
        )
        (gce_input_proj): Conv2d(128, 128, kernel_size=(1, 1), stride=(1, 1))
        (sg): SimpleGate()
        (conv4): Conv2d(128, 256, kernel_size=(1, 1), stride=(1, 1))
        (conv5): Conv2d(128, 128, kernel_size=(1, 1), stride=(1, 1))
        (norm1): LayerNorm2d()
        (norm2): LayerNorm2d()
        (dropout1): Identity()
        (dropout2): Identity()
      )
    )
  )
  (decoders): ModuleList(
    (0): Sequential(
      (0): NAFBlock0(
        (conv1): Conv2d(64, 128, kernel_size=(1, 1), stride=(1, 1))
        (conv2): Conv2d(128, 128, kernel_size=(3, 3), stride=(1, 1), padding=(1, 1), groups=128)
        (conv3): Conv2d(64, 64, kernel_size=(1, 1), stride=(1, 1))
        (sca): Sequential(
          (0): AdaptiveAvgPool2d(output_size=1)
          (1): Conv2d(64, 64, kernel_size=(1, 1), stride=(1, 1))
        )
        (sg): SimpleGate()
        (conv4): Conv2d(64, 128, kernel_size=(1, 1), stride=(1, 1))
        (conv5): Conv2d(64, 64, kernel_size=(1, 1), stride=(1, 1))
        (norm1): LayerNorm2d()
        (norm2): LayerNorm2d()
        (dropout1): Identity()
        (dropout2): Identity()
      )
      (1): NAFBlock0(
        (conv1): Conv2d(64, 128, kernel_size=(1, 1), stride=(1, 1))
        (conv2): Conv2d(128, 128, kernel_size=(3, 3), stride=(1, 1), padding=(1, 1), groups=128)
        (conv3): Conv2d(64, 64, kernel_size=(1, 1), stride=(1, 1))
        (sca): Sequential(
          (0): AdaptiveAvgPool2d(output_size=1)
          (1): Conv2d(64, 64, kernel_size=(1, 1), stride=(1, 1))
        )
        (sg): SimpleGate()
        (conv4): Conv2d(64, 128, kernel_size=(1, 1), stride=(1, 1))
        (conv5): Conv2d(64, 64, kernel_size=(1, 1), stride=(1, 1))
        (norm1): LayerNorm2d()
        (norm2): LayerNorm2d()
        (dropout1): Identity()
        (dropout2): Identity()
      )
    )
    (1): Sequential(
      (0): NAFBlock0(
        (conv1): Conv2d(32, 64, kernel_size=(1, 1), stride=(1, 1))
        (conv2): Conv2d(64, 64, kernel_size=(3, 3), stride=(1, 1), padding=(1, 1), groups=64)
        (conv3): Conv2d(32, 32, kernel_size=(1, 1), stride=(1, 1))
        (sca): Sequential(
          (0): AdaptiveAvgPool2d(output_size=1)
          (1): Conv2d(32, 32, kernel_size=(1, 1), stride=(1, 1))
        )
        (sg): SimpleGate()
        (conv4): Conv2d(32, 64, kernel_size=(1, 1), stride=(1, 1))
        (conv5): Conv2d(32, 32, kernel_size=(1, 1), stride=(1, 1))
        (norm1): LayerNorm2d()
        (norm2): LayerNorm2d()
        (dropout1): Identity()
        (dropout2): Identity()
      )
      (1): NAFBlock0(
        (conv1): Conv2d(32, 64, kernel_size=(1, 1), stride=(1, 1))
        (conv2): Conv2d(64, 64, kernel_size=(3, 3), stride=(1, 1), padding=(1, 1), groups=64)
        (conv3): Conv2d(32, 32, kernel_size=(1, 1), stride=(1, 1))
        (sca): Sequential(
          (0): AdaptiveAvgPool2d(output_size=1)
          (1): Conv2d(32, 32, kernel_size=(1, 1), stride=(1, 1))
        )
        (sg): SimpleGate()
        (conv4): Conv2d(32, 64, kernel_size=(1, 1), stride=(1, 1))
        (conv5): Conv2d(32, 32, kernel_size=(1, 1), stride=(1, 1))
        (norm1): LayerNorm2d()
        (norm2): LayerNorm2d()
        (dropout1): Identity()
        (dropout2): Identity()
      )
    )
    (2): Sequential(
      (0): NAFBlock0(
        (conv1): Conv2d(16, 32, kernel_size=(1, 1), stride=(1, 1))
        (conv2): Conv2d(32, 32, kernel_size=(3, 3), stride=(1, 1), padding=(1, 1), groups=32)
        (conv3): Conv2d(16, 16, kernel_size=(1, 1), stride=(1, 1))
        (sca): Sequential(
          (0): AdaptiveAvgPool2d(output_size=1)
          (1): Conv2d(16, 16, kernel_size=(1, 1), stride=(1, 1))
        )
        (sg): SimpleGate()
        (conv4): Conv2d(16, 32, kernel_size=(1, 1), stride=(1, 1))
        (conv5): Conv2d(16, 16, kernel_size=(1, 1), stride=(1, 1))
        (norm1): LayerNorm2d()
        (norm2): LayerNorm2d()
        (dropout1): Identity()
        (dropout2): Identity()
      )
      (1): NAFBlock0(
        (conv1): Conv2d(16, 32, kernel_size=(1, 1), stride=(1, 1))
        (conv2): Conv2d(32, 32, kernel_size=(3, 3), stride=(1, 1), padding=(1, 1), groups=32)
        (conv3): Conv2d(16, 16, kernel_size=(1, 1), stride=(1, 1))
        (sca): Sequential(
          (0): AdaptiveAvgPool2d(output_size=1)
          (1): Conv2d(16, 16, kernel_size=(1, 1), stride=(1, 1))
        )
        (sg): SimpleGate()
        (conv4): Conv2d(16, 32, kernel_size=(1, 1), stride=(1, 1))
        (conv5): Conv2d(16, 16, kernel_size=(1, 1), stride=(1, 1))
        (norm1): LayerNorm2d()
        (norm2): LayerNorm2d()
        (dropout1): Identity()
        (dropout2): Identity()
      )
    )
  )
  (middle_blks): Sequential(
    (0): NAFBlock0(
      (conv1): Conv2d(128, 256, kernel_size=(1, 1), stride=(1, 1))
      (conv2): Conv2d(256, 256, kernel_size=(3, 3), stride=(1, 1), padding=(1, 1), groups=256)
      (conv3): Conv2d(128, 128, kernel_size=(1, 1), stride=(1, 1))
      (sca): Sequential(
        (0): AdaptiveAvgPool2d(output_size=1)
        (1): Conv2d(128, 128, kernel_size=(1, 1), stride=(1, 1))
      )
      (sg): SimpleGate()
      (conv4): Conv2d(128, 256, kernel_size=(1, 1), stride=(1, 1))
      (conv5): Conv2d(128, 128, kernel_size=(1, 1), stride=(1, 1))
      (norm1): LayerNorm2d()
      (norm2): LayerNorm2d()
      (dropout1): Identity()
      (dropout2): Identity()
    )
    (1): NAFBlock0(
      (conv1): Conv2d(128, 256, kernel_size=(1, 1), stride=(1, 1))
      (conv2): Conv2d(256, 256, kernel_size=(3, 3), stride=(1, 1), padding=(1, 1), groups=256)
      (conv3): Conv2d(128, 128, kernel_size=(1, 1), stride=(1, 1))
      (sca): Sequential(
        (0): AdaptiveAvgPool2d(output_size=1)
        (1): Conv2d(128, 128, kernel_size=(1, 1), stride=(1, 1))
      )
      (sg): SimpleGate()
      (conv4): Conv2d(128, 256, kernel_size=(1, 1), stride=(1, 1))
      (conv5): Conv2d(128, 128, kernel_size=(1, 1), stride=(1, 1))
      (norm1): LayerNorm2d()
      (norm2): LayerNorm2d()
      (dropout1): Identity()
      (dropout2): Identity()
    )
    (2): NAFBlock0(
      (conv1): Conv2d(128, 256, kernel_size=(1, 1), stride=(1, 1))
      (conv2): Conv2d(256, 256, kernel_size=(3, 3), stride=(1, 1), padding=(1, 1), groups=256)
      (conv3): Conv2d(128, 128, kernel_size=(1, 1), stride=(1, 1))
      (sca): Sequential(
        (0): AdaptiveAvgPool2d(output_size=1)
        (1): Conv2d(128, 128, kernel_size=(1, 1), stride=(1, 1))
      )
      (sg): SimpleGate()
      (conv4): Conv2d(128, 256, kernel_size=(1, 1), stride=(1, 1))
      (conv5): Conv2d(128, 128, kernel_size=(1, 1), stride=(1, 1))
      (norm1): LayerNorm2d()
      (norm2): LayerNorm2d()
      (dropout1): Identity()
      (dropout2): Identity()
    )
    (3): NAFBlock0(
      (conv1): Conv2d(128, 256, kernel_size=(1, 1), stride=(1, 1))
      (conv2): Conv2d(256, 256, kernel_size=(3, 3), stride=(1, 1), padding=(1, 1), groups=256)
      (conv3): Conv2d(128, 128, kernel_size=(1, 1), stride=(1, 1))
      (sca): Sequential(
        (0): AdaptiveAvgPool2d(output_size=1)
        (1): Conv2d(128, 128, kernel_size=(1, 1), stride=(1, 1))
      )
      (sg): SimpleGate()
      (conv4): Conv2d(128, 256, kernel_size=(1, 1), stride=(1, 1))
      (conv5): Conv2d(128, 128, kernel_size=(1, 1), stride=(1, 1))
      (norm1): LayerNorm2d()
      (norm2): LayerNorm2d()
      (dropout1): Identity()
      (dropout2): Identity()
    )
    (4): NAFBlock0(
      (conv1): Conv2d(128, 256, kernel_size=(1, 1), stride=(1, 1))
      (conv2): Conv2d(256, 256, kernel_size=(3, 3), stride=(1, 1), padding=(1, 1), groups=256)
      (conv3): Conv2d(128, 128, kernel_size=(1, 1), stride=(1, 1))
      (sca): Sequential(
        (0): AdaptiveAvgPool2d(output_size=1)
        (1): Conv2d(128, 128, kernel_size=(1, 1), stride=(1, 1))
      )
      (sg): SimpleGate()
      (conv4): Conv2d(128, 256, kernel_size=(1, 1), stride=(1, 1))
      (conv5): Conv2d(128, 128, kernel_size=(1, 1), stride=(1, 1))
      (norm1): LayerNorm2d()
      (norm2): LayerNorm2d()
      (dropout1): Identity()
      (dropout2): Identity()
    )
    (5): NAFBlock0(
      (conv1): Conv2d(128, 256, kernel_size=(1, 1), stride=(1, 1))
      (conv2): Conv2d(256, 256, kernel_size=(3, 3), stride=(1, 1), padding=(1, 1), groups=256)
      (conv3): Conv2d(128, 128, kernel_size=(1, 1), stride=(1, 1))
      (sca): Sequential(
        (0): AdaptiveAvgPool2d(output_size=1)
        (1): Conv2d(128, 128, kernel_size=(1, 1), stride=(1, 1))
      )
      (sg): SimpleGate()
      (conv4): Conv2d(128, 256, kernel_size=(1, 1), stride=(1, 1))
      (conv5): Conv2d(128, 128, kernel_size=(1, 1), stride=(1, 1))
      (norm1): LayerNorm2d()
      (norm2): LayerNorm2d()
      (dropout1): Identity()
      (dropout2): Identity()
    )
    (6): NAFBlock0(
      (conv1): Conv2d(128, 256, kernel_size=(1, 1), stride=(1, 1))
      (conv2): Conv2d(256, 256, kernel_size=(3, 3), stride=(1, 1), padding=(1, 1), groups=256)
      (conv3): Conv2d(128, 128, kernel_size=(1, 1), stride=(1, 1))
      (sca): Sequential(
        (0): AdaptiveAvgPool2d(output_size=1)
        (1): Conv2d(128, 128, kernel_size=(1, 1), stride=(1, 1))
      )
      (sg): SimpleGate()
      (conv4): Conv2d(128, 256, kernel_size=(1, 1), stride=(1, 1))
      (conv5): Conv2d(128, 128, kernel_size=(1, 1), stride=(1, 1))
      (norm1): LayerNorm2d()
      (norm2): LayerNorm2d()
      (dropout1): Identity()
      (dropout2): Identity()
    )
    (7): NAFBlock0(
      (conv1): Conv2d(128, 256, kernel_size=(1, 1), stride=(1, 1))
      (conv2): Conv2d(256, 256, kernel_size=(3, 3), stride=(1, 1), padding=(1, 1), groups=256)
      (conv3): Conv2d(128, 128, kernel_size=(1, 1), stride=(1, 1))
      (sca): Sequential(
        (0): AdaptiveAvgPool2d(output_size=1)
        (1): Conv2d(128, 128, kernel_size=(1, 1), stride=(1, 1))
      )
      (sg): SimpleGate()
      (conv4): Conv2d(128, 256, kernel_size=(1, 1), stride=(1, 1))
      (conv5): Conv2d(128, 128, kernel_size=(1, 1), stride=(1, 1))
      (norm1): LayerNorm2d()
      (norm2): LayerNorm2d()
      (dropout1): Identity()
      (dropout2): Identity()
    )
  )
  (ups): ModuleList(
    (0): Sequential(
      (0): Conv2d(128, 256, kernel_size=(1, 1), stride=(1, 1), bias=False)
      (1): PixelShuffle(upscale_factor=2)
    )
    (1): Sequential(
      (0): Conv2d(64, 128, kernel_size=(1, 1), stride=(1, 1), bias=False)
      (1): PixelShuffle(upscale_factor=2)
    )
    (2): Sequential(
      (0): Conv2d(32, 64, kernel_size=(1, 1), stride=(1, 1), bias=False)
      (1): PixelShuffle(upscale_factor=2)
    )
  )
  (downs): ModuleList(
    (0): Conv2d(16, 32, kernel_size=(2, 2), stride=(2, 2))
    (1): Conv2d(32, 64, kernel_size=(2, 2), stride=(2, 2))
    (2): Conv2d(64, 128, kernel_size=(2, 2), stride=(2, 2))
  )
  (skip_convs): ModuleList(
    (0): Conv2d(16, 16, kernel_size=(1, 1), stride=(1, 1))
    (1): Conv2d(32, 32, kernel_size=(1, 1), stride=(1, 1))
    (2): Conv2d(64, 64, kernel_size=(1, 1), stride=(1, 1))
  )
  (ending): Conv2d(16, 3, kernel_size=(3, 3), stride=(1, 1), padding=(1, 1))
)
2025-04-25 15:01:12,305 - INFO - Defining Autoencoder of type: SimpleConvAE with args: {'in_channels': 3, 'base_channels': 16, 'num_encoder_layers': 3}
2025-04-25 15:01:12,305 - INFO - Instantiating AE class 'SimpleConvAE' from module 'models.autoencoder.simple_conv_ae'
2025-04-25 15:01:12,305 - INFO - SimpleConvAE Encoder created with 3 layers.
…
